ExplainOutput(graphs=[GraphModule(
  (L__self___conv1): Conv2d(3, 64, kernel_size=(7, 7), stride=(2, 2), padding=(3, 3), bias=False)
  (L__self___bn1): BatchNorm2d(64, eps=1e-05, momentum=0.1, affine=True, track_running_stats=True)
  (L__self___relu): ReLU(inplace=True)
  (L__self___maxpool): MaxPool2d(kernel_size=3, stride=2, padding=1, dilation=1, ceil_mode=False)
  (getattr_L__self___layer1___0___conv1): Conv2d(64, 64, kernel_size=(3, 3), stride=(1, 1), padding=(1, 1), bias=False)
  (getattr_L__self___layer1___0___bn1): BatchNorm2d(64, eps=1e-05, momentum=0.1, affine=True, track_running_stats=True)
  (getattr_L__self___layer1___0___relu): ReLU(inplace=True)
  (getattr_L__self___layer1___0___conv2): Conv2d(64, 64, kernel_size=(3, 3), stride=(1, 1), padding=(1, 1), bias=False)
  (getattr_L__self___layer1___0___bn2): BatchNorm2d(64, eps=1e-05, momentum=0.1, affine=True, track_running_stats=True)
  (getattr_L__self___layer1___1___conv1): Conv2d(64, 64, kernel_size=(3, 3), stride=(1, 1), padding=(1, 1), bias=False)
  (getattr_L__self___layer1___1___bn1): BatchNorm2d(64, eps=1e-05, momentum=0.1, affine=True, track_running_stats=True)
  (getattr_L__self___layer1___1___relu): ReLU(inplace=True)
  (getattr_L__self___layer1___1___conv2): Conv2d(64, 64, kernel_size=(3, 3), stride=(1, 1), padding=(1, 1), bias=False)
  (getattr_L__self___layer1___1___bn2): BatchNorm2d(64, eps=1e-05, momentum=0.1, affine=True, track_running_stats=True)
  (getattr_L__self___layer2___0___conv1): Conv2d(64, 128, kernel_size=(3, 3), stride=(2, 2), padding=(1, 1), bias=False)
  (getattr_L__self___layer2___0___bn1): BatchNorm2d(128, eps=1e-05, momentum=0.1, affine=True, track_running_stats=True)
  (getattr_L__self___layer2___0___relu): ReLU(inplace=True)
  (getattr_L__self___layer2___0___conv2): Conv2d(128, 128, kernel_size=(3, 3), stride=(1, 1), padding=(1, 1), bias=False)
  (getattr_L__self___layer2___0___bn2): BatchNorm2d(128, eps=1e-05, momentum=0.1, affine=True, track_running_stats=True)
  (getattr_L__self___layer2___0___downsample_0): Conv2d(64, 128, kernel_size=(1, 1), stride=(2, 2), bias=False)
  (getattr_L__self___layer2___0___downsample_1): BatchNorm2d(128, eps=1e-05, momentum=0.1, affine=True, track_running_stats=True)
  (getattr_L__self___layer2___1___conv1): Conv2d(128, 128, kernel_size=(3, 3), stride=(1, 1), padding=(1, 1), bias=False)
  (getattr_L__self___layer2___1___bn1): BatchNorm2d(128, eps=1e-05, momentum=0.1, affine=True, track_running_stats=True)
  (getattr_L__self___layer2___1___relu): ReLU(inplace=True)
  (getattr_L__self___layer2___1___conv2): Conv2d(128, 128, kernel_size=(3, 3), stride=(1, 1), padding=(1, 1), bias=False)
  (getattr_L__self___layer2___1___bn2): BatchNorm2d(128, eps=1e-05, momentum=0.1, affine=True, track_running_stats=True)
  (getattr_L__self___layer3___0___conv1): Conv2d(128, 256, kernel_size=(3, 3), stride=(2, 2), padding=(1, 1), bias=False)
  (getattr_L__self___layer3___0___bn1): BatchNorm2d(256, eps=1e-05, momentum=0.1, affine=True, track_running_stats=True)
  (getattr_L__self___layer3___0___relu): ReLU(inplace=True)
  (getattr_L__self___layer3___0___conv2): Conv2d(256, 256, kernel_size=(3, 3), stride=(1, 1), padding=(1, 1), bias=False)
  (getattr_L__self___layer3___0___bn2): BatchNorm2d(256, eps=1e-05, momentum=0.1, affine=True, track_running_stats=True)
  (getattr_L__self___layer3___0___downsample_0): Conv2d(128, 256, kernel_size=(1, 1), stride=(2, 2), bias=False)
  (getattr_L__self___layer3___0___downsample_1): BatchNorm2d(256, eps=1e-05, momentum=0.1, affine=True, track_running_stats=True)
  (getattr_L__self___layer3___1___conv1): Conv2d(256, 256, kernel_size=(3, 3), stride=(1, 1), padding=(1, 1), bias=False)
  (getattr_L__self___layer3___1___bn1): BatchNorm2d(256, eps=1e-05, momentum=0.1, affine=True, track_running_stats=True)
  (getattr_L__self___layer3___1___relu): ReLU(inplace=True)
  (getattr_L__self___layer3___1___conv2): Conv2d(256, 256, kernel_size=(3, 3), stride=(1, 1), padding=(1, 1), bias=False)
  (getattr_L__self___layer3___1___bn2): BatchNorm2d(256, eps=1e-05, momentum=0.1, affine=True, track_running_stats=True)
  (getattr_L__self___layer4___0___conv1): Conv2d(256, 512, kernel_size=(3, 3), stride=(2, 2), padding=(1, 1), bias=False)
  (getattr_L__self___layer4___0___bn1): BatchNorm2d(512, eps=1e-05, momentum=0.1, affine=True, track_running_stats=True)
  (getattr_L__self___layer4___0___relu): ReLU(inplace=True)
  (getattr_L__self___layer4___0___conv2): Conv2d(512, 512, kernel_size=(3, 3), stride=(1, 1), padding=(1, 1), bias=False)
  (getattr_L__self___layer4___0___bn2): BatchNorm2d(512, eps=1e-05, momentum=0.1, affine=True, track_running_stats=True)
  (getattr_L__self___layer4___0___downsample_0): Conv2d(256, 512, kernel_size=(1, 1), stride=(2, 2), bias=False)
  (getattr_L__self___layer4___0___downsample_1): BatchNorm2d(512, eps=1e-05, momentum=0.1, affine=True, track_running_stats=True)
  (getattr_L__self___layer4___1___conv1): Conv2d(512, 512, kernel_size=(3, 3), stride=(1, 1), padding=(1, 1), bias=False)
  (getattr_L__self___layer4___1___bn1): BatchNorm2d(512, eps=1e-05, momentum=0.1, affine=True, track_running_stats=True)
  (getattr_L__self___layer4___1___relu): ReLU(inplace=True)
  (getattr_L__self___layer4___1___conv2): Conv2d(512, 512, kernel_size=(3, 3), stride=(1, 1), padding=(1, 1), bias=False)
  (getattr_L__self___layer4___1___bn2): BatchNorm2d(512, eps=1e-05, momentum=0.1, affine=True, track_running_stats=True)
  (L__self___avgpool): AdaptiveAvgPool2d(output_size=(1, 1))
  (L__self___fc): Linear(in_features=512, out_features=1000, bias=True)
)],
              graph_count=1,
              graph_break_count=0,
              break_reasons=[],
              op_count=9,
              ops_per_graph=[[<built-in function iadd>,
                              <built-in function iadd>,
                              <built-in function iadd>,
                              <built-in function iadd>,
                              <built-in function iadd>,
…
